_________________________________________________________________
Layer (type)                 Output Shape              Param #   
=================================================================
cifar (InputLayer)           (None, 32, 32, 3)         0         
_________________________________________________________________
conv0 (Conv2D)               (None, 16, 16, 128)       3456      
_________________________________________________________________
bn0 (BatchNormalization)     (None, 16, 16, 128)       512       
_________________________________________________________________
relu0 (Activation)           (None, 16, 16, 128)       0         
_________________________________________________________________
conv1a (Conv2D)              (None, 16, 16, 32)        4096      
_________________________________________________________________
bn1b (BatchNormalization)    (None, 16, 16, 32)        64        
_________________________________________________________________
relu1b (Activation)          (None, 16, 16, 32)        0         
_________________________________________________________________
conv1b (Conv2D)              (None, 16, 16, 32)        9216      
_________________________________________________________________
bn1c (BatchNormalization)    (None, 16, 16, 32)        64        
_________________________________________________________________
relu1c (Activation)          (None, 16, 16, 32)        0         
_________________________________________________________________
conv1c (Conv2D)              (None, 16, 16, 128)       4224      
_________________________________________________________________
add1 (Add)                   (None, 16, 16, 128)       0         
_________________________________________________________________
bn2a (BatchNormalization)    (None, 16, 16, 128)       64        
_________________________________________________________________
relu2a (Activation)          (None, 16, 16, 128)       0         
_________________________________________________________________
conv2a (Conv2D)              (None, 16, 16, 32)        4096      
_________________________________________________________________
bn2b (BatchNormalization)    (None, 16, 16, 32)        64        
_________________________________________________________________
relu2b (Activation)          (None, 16, 16, 32)        0         
_________________________________________________________________
conv2b (Conv2D)              (None, 16, 16, 32)        9216      
_________________________________________________________________
bn2c (BatchNormalization)    (None, 16, 16, 32)        64        
_________________________________________________________________
relu2c (Activation)          (None, 16, 16, 32)        0         
_________________________________________________________________
conv2c (Conv2D)              (None, 16, 16, 128)       4224      
_________________________________________________________________
add2 (Add)                   (None, 16, 16, 128)       0         
_________________________________________________________________
bn3a (BatchNormalization)    (None, 16, 16, 128)       64        
_________________________________________________________________
relu3a (Activation)          (None, 16, 16, 128)       0         
_________________________________________________________________
conv3a (Conv2D)              (None, 16, 16, 32)        4096      
_________________________________________________________________
bn3b (BatchNormalization)    (None, 16, 16, 32)        64        
_________________________________________________________________
relu3b (Activation)          (None, 16, 16, 32)        0         
_________________________________________________________________
conv3b (Conv2D)              (None, 16, 16, 32)        9216      
_________________________________________________________________
bn3c (BatchNormalization)    (None, 16, 16, 32)        64        
_________________________________________________________________
relu3c (Activation)          (None, 16, 16, 32)        0         
_________________________________________________________________
conv3c (Conv2D)              (None, 16, 16, 128)       4224      
_________________________________________________________________
add3 (Add)                   (None, 16, 16, 128)       0         
_________________________________________________________________
bn4a (BatchNormalization)    (None, 16, 16, 128)       64        
_________________________________________________________________
relu4a (Activation)          (None, 16, 16, 128)       0         
_________________________________________________________________
conv4a (Conv2D)              (None, 16, 16, 32)        4096      
_________________________________________________________________
bn4b (BatchNormalization)    (None, 16, 16, 32)        64        
_________________________________________________________________
relu4b (Activation)          (None, 16, 16, 32)        0         
_________________________________________________________________
conv4b (Conv2D)              (None, 16, 16, 32)        9216      
_________________________________________________________________
bn4c (BatchNormalization)    (None, 16, 16, 32)        64        
_________________________________________________________________
relu4c (Activation)          (None, 16, 16, 32)        0         
_________________________________________________________________
conv4c (Conv2D)              (None, 16, 16, 128)       4224      
_________________________________________________________________
add4 (Add)                   (None, 16, 16, 128)       0         
_________________________________________________________________
bn5a (BatchNormalization)    (None, 16, 16, 128)       64        
_________________________________________________________________
relu5a (Activation)          (None, 16, 16, 128)       0         
_________________________________________________________________
conv5a (Conv2D)              (None, 16, 16, 32)        4096      
_________________________________________________________________
bn5b (BatchNormalization)    (None, 16, 16, 32)        64        
_________________________________________________________________
relu5b (Activation)          (None, 16, 16, 32)        0         
_________________________________________________________________
conv5b (Conv2D)              (None, 16, 16, 32)        9216      
_________________________________________________________________
bn5c (BatchNormalization)    (None, 16, 16, 32)        64        
_________________________________________________________________
relu5c (Activation)          (None, 16, 16, 32)        0         
_________________________________________________________________
conv5c (Conv2D)              (None, 16, 16, 128)       4224      
_________________________________________________________________
add5 (Add)                   (None, 16, 16, 128)       0         
_________________________________________________________________
bn6a (BatchNormalization)    (None, 16, 16, 128)       64        
_________________________________________________________________
relu6a (Activation)          (None, 16, 16, 128)       0         
_________________________________________________________________
conv6a (Conv2D)              (None, 16, 16, 32)        4096      
_________________________________________________________________
bn6b (BatchNormalization)    (None, 16, 16, 32)        64        
_________________________________________________________________
relu6b (Activation)          (None, 16, 16, 32)        0         
_________________________________________________________________
conv6b (Conv2D)              (None, 16, 16, 32)        9216      
_________________________________________________________________
bn6c (BatchNormalization)    (None, 16, 16, 32)        64        
_________________________________________________________________
relu6c (Activation)          (None, 16, 16, 32)        0         
_________________________________________________________________
conv6c (Conv2D)              (None, 16, 16, 128)       4224      
_________________________________________________________________
add6 (Add)                   (None, 16, 16, 128)       0         
_________________________________________________________________
bn7a (BatchNormalization)    (None, 16, 16, 128)       64        
_________________________________________________________________
relu7a (Activation)          (None, 16, 16, 128)       0         
_________________________________________________________________
conv7a (Conv2D)              (None, 16, 16, 32)        4096      
_________________________________________________________________
bn7b (BatchNormalization)    (None, 16, 16, 32)        64        
_________________________________________________________________
relu7b (Activation)          (None, 16, 16, 32)        0         
_________________________________________________________________
conv7b (Conv2D)              (None, 16, 16, 32)        9216      
_________________________________________________________________
bn7c (BatchNormalization)    (None, 16, 16, 32)        64        
_________________________________________________________________
relu7c (Activation)          (None, 16, 16, 32)        0         
_________________________________________________________________
conv7c (Conv2D)              (None, 16, 16, 128)       4224      
_________________________________________________________________
add7 (Add)                   (None, 16, 16, 128)       0         
_________________________________________________________________
bn8a (BatchNormalization)    (None, 16, 16, 128)       64        
_________________________________________________________________
relu8a (Activation)          (None, 16, 16, 128)       0         
_________________________________________________________________
conv8a (Conv2D)              (None, 16, 16, 32)        4096      
_________________________________________________________________
bn8b (BatchNormalization)    (None, 16, 16, 32)        64        
_________________________________________________________________
relu8b (Activation)          (None, 16, 16, 32)        0         
_________________________________________________________________
conv8b (Conv2D)              (None, 16, 16, 32)        9216      
_________________________________________________________________
bn8c (BatchNormalization)    (None, 16, 16, 32)        64        
_________________________________________________________________
relu8c (Activation)          (None, 16, 16, 32)        0         
_________________________________________________________________
conv8c (Conv2D)              (None, 16, 16, 128)       4224      
_________________________________________________________________
add8 (Add)                   (None, 16, 16, 128)       0         
_________________________________________________________________
bn9a (BatchNormalization)    (None, 16, 16, 128)       64        
_________________________________________________________________
relu9a (Activation)          (None, 16, 16, 128)       0         
_________________________________________________________________
conv9a (Conv2D)              (None, 16, 16, 32)        4096      
_________________________________________________________________
bn9b (BatchNormalization)    (None, 16, 16, 32)        64        
_________________________________________________________________
relu9b (Activation)          (None, 16, 16, 32)        0         
_________________________________________________________________
conv9b (Conv2D)              (None, 16, 16, 32)        9216      
_________________________________________________________________
bn9c (BatchNormalization)    (None, 16, 16, 32)        64        
_________________________________________________________________
relu9c (Activation)          (None, 16, 16, 32)        0         
_________________________________________________________________
conv9c (Conv2D)              (None, 16, 16, 128)       4224      
_________________________________________________________________
add9 (Add)                   (None, 16, 16, 128)       0         
_________________________________________________________________
bn10a (BatchNormalization)   (None, 16, 16, 128)       64        
_________________________________________________________________
relu10a (Activation)         (None, 16, 16, 128)       0         
_________________________________________________________________
conv10a (Conv2D)             (None, 16, 16, 32)        4096      
_________________________________________________________________
bn10b (BatchNormalization)   (None, 16, 16, 32)        64        
_________________________________________________________________
relu10b (Activation)         (None, 16, 16, 32)        0         
_________________________________________________________________
conv10b (Conv2D)             (None, 16, 16, 32)        9216      
_________________________________________________________________
bn10c (BatchNormalization)   (None, 16, 16, 32)        64        
_________________________________________________________________
relu10c (Activation)         (None, 16, 16, 32)        0         
_________________________________________________________________
conv10c (Conv2D)             (None, 16, 16, 128)       4224      
_________________________________________________________________
add10 (Add)                  (None, 16, 16, 128)       0         
_________________________________________________________________
bn11a (BatchNormalization)   (None, 16, 16, 128)       64        
_________________________________________________________________
relu11a (Activation)         (None, 16, 16, 128)       0         
_________________________________________________________________
conv11a (Conv2D)             (None, 16, 16, 32)        4096      
_________________________________________________________________
bn11b (BatchNormalization)   (None, 16, 16, 32)        64        
_________________________________________________________________
relu11b (Activation)         (None, 16, 16, 32)        0         
_________________________________________________________________
conv11b (Conv2D)             (None, 16, 16, 32)        9216      
_________________________________________________________________
bn11c (BatchNormalization)   (None, 16, 16, 32)        64        
_________________________________________________________________
relu11c (Activation)         (None, 16, 16, 32)        0         
_________________________________________________________________
conv11c (Conv2D)             (None, 16, 16, 128)       4224      
_________________________________________________________________
add11 (Add)                  (None, 16, 16, 128)       0         
_________________________________________________________________
bn12a (BatchNormalization)   (None, 16, 16, 128)       64        
_________________________________________________________________
relu12a (Activation)         (None, 16, 16, 128)       0         
_________________________________________________________________
conv12a (Conv2D)             (None, 16, 16, 32)        4096      
_________________________________________________________________
bn12b (BatchNormalization)   (None, 16, 16, 32)        64        
_________________________________________________________________
relu12b (Activation)         (None, 16, 16, 32)        0         
_________________________________________________________________
conv12b (Conv2D)             (None, 16, 16, 32)        9216      
_________________________________________________________________
bn12c (BatchNormalization)   (None, 16, 16, 32)        64        
_________________________________________________________________
relu12c (Activation)         (None, 16, 16, 32)        0         
_________________________________________________________________
conv12c (Conv2D)             (None, 16, 16, 128)       4224      
_________________________________________________________________
add12 (Add)                  (None, 16, 16, 128)       0         
_________________________________________________________________
bn13a (BatchNormalization)   (None, 16, 16, 128)       64        
_________________________________________________________________
relu13a (Activation)         (None, 16, 16, 128)       0         
_________________________________________________________________
conv13a (Conv2D)             (None, 16, 16, 32)        4096      
_________________________________________________________________
bn13b (BatchNormalization)   (None, 16, 16, 32)        64        
_________________________________________________________________
relu13b (Activation)         (None, 16, 16, 32)        0         
_________________________________________________________________
conv13b (Conv2D)             (None, 16, 16, 32)        9216      
_________________________________________________________________
bn13c (BatchNormalization)   (None, 16, 16, 32)        64        
_________________________________________________________________
relu13c (Activation)         (None, 16, 16, 32)        0         
_________________________________________________________________
conv13c (Conv2D)             (None, 16, 16, 128)       4224      
_________________________________________________________________
add13 (Add)                  (None, 16, 16, 128)       0         
_________________________________________________________________
bn14a (BatchNormalization)   (None, 16, 16, 128)       64        
_________________________________________________________________
relu14a (Activation)         (None, 16, 16, 128)       0         
_________________________________________________________________
conv14a (Conv2D)             (None, 16, 16, 32)        4096      
_________________________________________________________________
bn14b (BatchNormalization)   (None, 16, 16, 32)        64        
_________________________________________________________________
relu14b (Activation)         (None, 16, 16, 32)        0         
_________________________________________________________________
conv14b (Conv2D)             (None, 16, 16, 32)        9216      
_________________________________________________________________
bn14c (BatchNormalization)   (None, 16, 16, 32)        64        
_________________________________________________________________
relu14c (Activation)         (None, 16, 16, 32)        0         
_________________________________________________________________
conv14c (Conv2D)             (None, 16, 16, 128)       4224      
_________________________________________________________________
add14 (Add)                  (None, 16, 16, 128)       0         
_________________________________________________________________
bn15a (BatchNormalization)   (None, 16, 16, 128)       64        
_________________________________________________________________
relu15a (Activation)         (None, 16, 16, 128)       0         
_________________________________________________________________
conv15a (Conv2D)             (None, 16, 16, 32)        4096      
_________________________________________________________________
bn15b (BatchNormalization)   (None, 16, 16, 32)        64        
_________________________________________________________________
relu15b (Activation)         (None, 16, 16, 32)        0         
_________________________________________________________________
conv15b (Conv2D)             (None, 16, 16, 32)        9216      
_________________________________________________________________
bn15c (BatchNormalization)   (None, 16, 16, 32)        64        
_________________________________________________________________
relu15c (Activation)         (None, 16, 16, 32)        0         
_________________________________________________________________
conv15c (Conv2D)             (None, 16, 16, 128)       4224      
_________________________________________________________________
add15 (Add)                  (None, 16, 16, 128)       0         
_________________________________________________________________
bn16a (BatchNormalization)   (None, 16, 16, 128)       64        
_________________________________________________________________
relu16a (Activation)         (None, 16, 16, 128)       0         
_________________________________________________________________
conv16a (Conv2D)             (None, 16, 16, 32)        4096      
_________________________________________________________________
bn16b (BatchNormalization)   (None, 16, 16, 32)        64        
_________________________________________________________________
relu16b (Activation)         (None, 16, 16, 32)        0         
_________________________________________________________________
conv16b (Conv2D)             (None, 16, 16, 32)        9216      
_________________________________________________________________
bn16c (BatchNormalization)   (None, 16, 16, 32)        64        
_________________________________________________________________
relu16c (Activation)         (None, 16, 16, 32)        0         
_________________________________________________________________
conv16c (Conv2D)             (None, 16, 16, 128)       4224      
_________________________________________________________________
add16 (Add)                  (None, 16, 16, 128)       0         
_________________________________________________________________
bn17a (BatchNormalization)   (None, 16, 16, 128)       64        
_________________________________________________________________
relu17a (Activation)         (None, 16, 16, 128)       0         
_________________________________________________________________
conv17a (Conv2D)             (None, 16, 16, 32)        4096      
_________________________________________________________________
bn17b (BatchNormalization)   (None, 16, 16, 32)        64        
_________________________________________________________________
relu17b (Activation)         (None, 16, 16, 32)        0         
_________________________________________________________________
conv17b (Conv2D)             (None, 16, 16, 32)        9216      
_________________________________________________________________
bn17c (BatchNormalization)   (None, 16, 16, 32)        64        
_________________________________________________________________
relu17c (Activation)         (None, 16, 16, 32)        0         
_________________________________________________________________
conv17c (Conv2D)             (None, 16, 16, 128)       4224      
_________________________________________________________________
add17 (Add)                  (None, 16, 16, 128)       0         
_________________________________________________________________
bn18a (BatchNormalization)   (None, 16, 16, 128)       64        
_________________________________________________________________
relu18a (Activation)         (None, 16, 16, 128)       0         
_________________________________________________________________
conv18a (Conv2D)             (None, 16, 16, 32)        4096      
_________________________________________________________________
bn18b (BatchNormalization)   (None, 16, 16, 32)        64        
_________________________________________________________________
relu18b (Activation)         (None, 16, 16, 32)        0         
_________________________________________________________________
conv18b (Conv2D)             (None, 16, 16, 32)        9216      
_________________________________________________________________
bn18c (BatchNormalization)   (None, 16, 16, 32)        64        
_________________________________________________________________
relu18c (Activation)         (None, 16, 16, 32)        0         
_________________________________________________________________
conv18c (Conv2D)             (None, 16, 16, 128)       4224      
_________________________________________________________________
add18 (Add)                  (None, 16, 16, 128)       0         
_________________________________________________________________
bn19a (BatchNormalization)   (None, 16, 16, 128)       64        
_________________________________________________________________
relu19a (Activation)         (None, 16, 16, 128)       0         
_________________________________________________________________
conv19a (Conv2D)             (None, 16, 16, 32)        4096      
_________________________________________________________________
bn19b (BatchNormalization)   (None, 16, 16, 32)        64        
_________________________________________________________________
relu19b (Activation)         (None, 16, 16, 32)        0         
_________________________________________________________________
conv19b (Conv2D)             (None, 16, 16, 32)        9216      
_________________________________________________________________
bn19c (BatchNormalization)   (None, 16, 16, 32)        64        
_________________________________________________________________
relu19c (Activation)         (None, 16, 16, 32)        0         
_________________________________________________________________
conv19c (Conv2D)             (None, 16, 16, 128)       4224      
_________________________________________________________________
add19 (Add)                  (None, 16, 16, 128)       0         
_________________________________________________________________
bn20a (BatchNormalization)   (None, 16, 16, 128)       64        
_________________________________________________________________
relu20a (Activation)         (None, 16, 16, 128)       0         
_________________________________________________________________
conv20a (Conv2D)             (None, 16, 16, 32)        4096      
_________________________________________________________________
bn20b (BatchNormalization)   (None, 16, 16, 32)        64        
_________________________________________________________________
relu20b (Activation)         (None, 16, 16, 32)        0         
_________________________________________________________________
conv20b (Conv2D)             (None, 16, 16, 32)        9216      
_________________________________________________________________
bn20c (BatchNormalization)   (None, 16, 16, 32)        64        
_________________________________________________________________
relu20c (Activation)         (None, 16, 16, 32)        0         
_________________________________________________________________
conv20c (Conv2D)             (None, 16, 16, 128)       4224      
_________________________________________________________________
add20 (Add)                  (None, 16, 16, 128)       0         
_________________________________________________________________
bn21a (BatchNormalization)   (None, 16, 16, 128)       64        
_________________________________________________________________
relu21a (Activation)         (None, 16, 16, 128)       0         
_________________________________________________________________
conv21a (Conv2D)             (None, 16, 16, 32)        4096      
_________________________________________________________________
bn21b (BatchNormalization)   (None, 16, 16, 32)        64        
_________________________________________________________________
relu21b (Activation)         (None, 16, 16, 32)        0         
_________________________________________________________________
conv21b (Conv2D)             (None, 16, 16, 32)        9216      
_________________________________________________________________
bn21c (BatchNormalization)   (None, 16, 16, 32)        64        
_________________________________________________________________
relu21c (Activation)         (None, 16, 16, 32)        0         
_________________________________________________________________
conv21c (Conv2D)             (None, 16, 16, 128)       4224      
_________________________________________________________________
add21 (Add)                  (None, 16, 16, 128)       0         
_________________________________________________________________
bn22a (BatchNormalization)   (None, 16, 16, 128)       64        
_________________________________________________________________
relu22a (Activation)         (None, 16, 16, 128)       0         
_________________________________________________________________
conv22a (Conv2D)             (None, 16, 16, 32)        4096      
_________________________________________________________________
bn22b (BatchNormalization)   (None, 16, 16, 32)        64        
_________________________________________________________________
relu22b (Activation)         (None, 16, 16, 32)        0         
_________________________________________________________________
conv22b (Conv2D)             (None, 16, 16, 32)        9216      
_________________________________________________________________
bn22c (BatchNormalization)   (None, 16, 16, 32)        64        
_________________________________________________________________
relu22c (Activation)         (None, 16, 16, 32)        0         
_________________________________________________________________
conv22c (Conv2D)             (None, 16, 16, 128)       4224      
_________________________________________________________________
add22 (Add)                  (None, 16, 16, 128)       0         
_________________________________________________________________
bn23a (BatchNormalization)   (None, 16, 16, 128)       64        
_________________________________________________________________
relu23a (Activation)         (None, 16, 16, 128)       0         
_________________________________________________________________
conv23a (Conv2D)             (None, 16, 16, 32)        4096      
_________________________________________________________________
bn23b (BatchNormalization)   (None, 16, 16, 32)        64        
_________________________________________________________________
relu23b (Activation)         (None, 16, 16, 32)        0         
_________________________________________________________________
conv23b (Conv2D)             (None, 16, 16, 32)        9216      
_________________________________________________________________
bn23c (BatchNormalization)   (None, 16, 16, 32)        64        
_________________________________________________________________
relu23c (Activation)         (None, 16, 16, 32)        0         
_________________________________________________________________
conv23c (Conv2D)             (None, 16, 16, 128)       4224      
_________________________________________________________________
add23 (Add)                  (None, 16, 16, 128)       0         
_________________________________________________________________
bn24a (BatchNormalization)   (None, 16, 16, 128)       64        
_________________________________________________________________
relu24a (Activation)         (None, 16, 16, 128)       0         
_________________________________________________________________
conv24a (Conv2D)             (None, 16, 16, 32)        4096      
_________________________________________________________________
bn24b (BatchNormalization)   (None, 16, 16, 32)        64        
_________________________________________________________________
relu24b (Activation)         (None, 16, 16, 32)        0         
_________________________________________________________________
conv24b (Conv2D)             (None, 16, 16, 32)        9216      
_________________________________________________________________
bn24c (BatchNormalization)   (None, 16, 16, 32)        64        
_________________________________________________________________
relu24c (Activation)         (None, 16, 16, 32)        0         
_________________________________________________________________
conv24c (Conv2D)             (None, 16, 16, 128)       4224      
_________________________________________________________________
add24 (Add)                  (None, 16, 16, 128)       0         
_________________________________________________________________
bn25a (BatchNormalization)   (None, 16, 16, 128)       64        
_________________________________________________________________
relu25a (Activation)         (None, 16, 16, 128)       0         
_________________________________________________________________
conv25a (Conv2D)             (None, 16, 16, 32)        4096      
_________________________________________________________________
bn25b (BatchNormalization)   (None, 16, 16, 32)        64        
_________________________________________________________________
relu25b (Activation)         (None, 16, 16, 32)        0         
_________________________________________________________________
conv25b (Conv2D)             (None, 16, 16, 32)        9216      
_________________________________________________________________
bn25c (BatchNormalization)   (None, 16, 16, 32)        64        2017-08-28 19:42:05.466549: W tensorflow/core/platform/cpu_feature_guard.cc:45] The TensorFlow library wasn't compiled to use SSE4.1 instructions, but these are available on your machine and could speed up CPU computations.
2017-08-28 19:42:05.466592: W tensorflow/core/platform/cpu_feature_guard.cc:45] The TensorFlow library wasn't compiled to use SSE4.2 instructions, but these are available on your machine and could speed up CPU computations.
…
2017-08-28 19:42:08.222259: I tensorflow/core/common_runtime/gpu/gpu_device.cc:961] DMA: 0 
2017-08-28 19:42:08.222268: I tensorflow/core/common_runtime/gpu/gpu_device.cc:971] 0:   Y 
2017-08-28 19:42:08.222280: I tensorflow/core/common_runtime/gpu/gpu_device.cc:1030] Creating TensorFlow device (/gpu:0) -> (device: 0, name: TITAN X (Pascal), pci bus id: 0000:06:00.0)
WARNING:tensorflow:Error encountered when serializing regularization_losses.
Type is unsupported, or the types of the items don't match field type in CollectionDef.
'float' object has no attribute 'name'

_________________________________________________________________
relu25c (Activation)         (None, 16, 16, 32)        0         
_________________________________________________________________
conv25c (Conv2D)             (None, 16, 16, 128)       4224      
_________________________________________________________________
add25 (Add)                  (None, 16, 16, 128)       0         
_________________________________________________________________
bnF (BatchNormalization)     (None, 16, 16, 128)       512       
_________________________________________________________________
reluF (Activation)           (None, 16, 16, 128)       0         
_________________________________________________________________
avg_pool (AveragePooling2D)  (None, 1, 1, 128)         0         
_________________________________________________________________
flat (Flatten)               (None, 128)               0         
_________________________________________________________________
fc1 (Dense)                  (None, 10)                1290      
=================================================================
Total params: 448,906
Trainable params: 446,026
Non-trainable params: 2,880
_________________________________________________________________
Found 50000 images belonging to 10 classes.
Found 10000 images belonging to 10 classes.
Data loaded!
Train on 50000 samples, validate on 10000 samples
Epoch 1/50
   32/50000 [..............................] - ETA: 4993s - loss: 2.4615 - acc: 0.03122017-08-28 19:42:18.839254: I tensorflow/core/common_runtime/gpu/pool_allocator.cc:247] PoolAllocator: After 2146 get requests, put_count=1537 evicted_count=1000 eviction_rate=0.650618 and unsatisfied allocation rate=0.796365
…
